Common-voice-asr/models/best_rnn.pth (torch, 394193 bytes, 12 tensors)

encoder.input_proj.weight f4 [256, 80]
000000 a0 e4 5b 3d 50 c9 a2 3d 18 0b cb bd 03 12 68 bd
       0.05368483 0.079485536 -0.09914225 -0.056657802
000010 fe 7a 9f bd 8e 24 e2 3b bb 80 17 3d 44 31 b1 3d
       -0.07787131 0.0069013303 0.036988 0.08651975
000020 67 43 ce 3c 35 4a 2f bd df 1a ae bd e1 14 8d bd
       0.025178624 -0.04279538 -0.08501219 -0.06888748
000030 34 a8 bc 3c ae 14 74 bd 92 24 d1 bd ab d7 e0 3d
       0.023029424 -0.059590034 -0.10212053 0.109786354
000040 f7 f4 14 bd 75 b6 a5 3d 7e 44 d7 3d f4 eb dd b9
       -0.03636643 0.080914415 0.10511111 -0.00042328204
000050 4d 16 19 3d 6c f0 9b bd 4d 76 ca 3c 76 1c 9c 3d
       0.037374783 -0.07614216 0.024714613 0.07622616
000060 19 1d c9 3d 24 e8 d9 3d b9 7d 92 3d e6 80 96 bd
       0.09820003 0.106399804 0.07152886 -0.07348804
000070 3a a5 cf ba 5f fe 89 bd fc 70 08 bc 89 64 02 3d
       -0.0015842088 -0.067379706 -0.008327719 0.03183416
000080 93 47 97 bd 48 bd af 3d 34 b1 36 3d c4 95 3b 3d
       -0.073866986 0.085810244 0.044602588 0.045797125
000090 d5 30 24 bd 18 4d a0 3d f6 b0 95 3c 1c 65 99 3d
       -0.040085632 0.078272045 0.018272858 0.07489988
0000a0 47 c0 f6 bc 79 8b 2c 3c c8 a2 9c bb d4 e0 dd bd
       -0.030120982 0.0105313 -0.004780147 -0.10833898
0000b0 c7 2d cf 3c 29 09 c6 3d 4e 3d b3 3c 49 b1 d2 bd
       0.025290383 0.09669716 0.021879818 -0.10287721
0000c0 2c 72 a6 3c 19 2d 8e 3d 6b 9c c5 3d a6 fb a1 bd
       0.020318113 0.069421954 0.09648975 -0.07909326
0000d0 f9 23 d3 bd 5d 18 b6 bc 0d b7 cd 3d de 0d 50 bd
       -0.103095956 -0.022228414 0.1004468 -0.050794475
0000e0 0f d1 59 3d f6 e8 61 3d f4 83 e5 3d 7d 5a a2 bd
       0.05317789 0.05515381 0.11206809 -0.079274155
0000f0 e6 2b 89 3d f5 d7 96 3c 85 31 46 bd 9b a6 27 bc
       0.06697826 0.018413523 -0.04838707 -0.010232593
000100 83 59 dc bc b2 3b 1c 3d 6b 8f 00 3d d2 f4 76 bc
       -0.026898151 0.038142867 0.031386774 -0.015073018
000110 ac 64 c7 3d be 57 a1 3d d0 e1 48 3d af a5 b2 3c
       0.097359985 0.078780636 0.049043477 0.02180752
000120 b1 82 86 bd e1 b8 cb 3c 43 76 b5 bd f2 04 9f 3d
       -0.06567896 0.02486843 -0.08860447 0.07764615
000130 61 4c 8a bd b1 94 04 bd 4e 00 04 bc f1 da aa bd
       -0.06752849 -0.032368366 -0.008056713 -0.08342541
000140 3e b7 28 bd d6 a8 77 bd aa a9 c1 bd e8 9a df bd
       -0.04119038 -0.06046375 -0.09456189 -0.10918218
000150 2d 96 5e 3c e5 9d 97 3d bf 0e b4 3b fa 0d 7e 3c
       0.013585609 0.07403163 0.005494922 0.015506262
000160 ab 30 b9 3a 3f 48 c5 bd 96 a1 b6 3d 15 42 9f bc
       0.0014128884 -0.096329205 0.08917539 -0.01944069
000170 fe b0 24 bd 1f 72 1a bd 26 a4 e1 bd d7 c0 d0 bd
       -0.040207855 -0.03770649 -0.11017637 -0.10193031
000180 c5 84 b7 3d 83 e1 d6 3d 62 fa e5 3d f8 53 bb bd
       0.08960871 0.10492232 0.11229397 -0.09146875
000190 c5 e2 d2 3d d9 24 df bd 07 9e 50 3d c7 60 e5 3d
       0.10297159 -0.108957 0.050931957 0.112000994
0001a0 ed 1f ad bc fe c7 d6 bd 00 c6 70 bd 86 67 e3 bb
       -0.021133387 -0.10487364 -0.058782578 -0.006939831
0001b0 73 6a 5f bd 07 1f 63 3d 93 37 83 3c bd d8 bb bc
       -0.054544877 0.05544951 0.01601771 -0.022930497
0001c0 e5 2f d0 bd 60 7a e4 3d 11 89 de bd 87 e3 9d 3c
       -0.10165385 0.11156154 -0.10865987 0.019273533
0001d0 3c f0 e6 3d 1a 85 a8 bc 1a 6e c6 bd ef 5d 79 3d
       0.1127629 -0.02057128 -0.09688969 0.060880598
0001e0 c1 9a 6d bd 57 f1 ef bc f1 98 cf 3d 06 0d e3 3d
       -0.058008913 -0.029289884 0.10136593 0.110864684
0001f0 57 07 3d bd 4d 6b ec bc 19 9a 1a bc 85 f1 63 bc
       -0.046149578 -0.028859759 -0.009436154 -0.013912563
000200 9a 59 58 3d 56 ae a8 3d c7 36 90 bd b1 66 c0 3a
       0.052819826 0.08236377 -0.07041698 0.0014679042
000210 84 6d 8f bc 73 de d8 3d 5f 8c 9d 3d 1e 48 9d 3d
       -0.017508276 0.10589304 0.07692789 0.07679771
000220 ff fd 9b bc f6 51 59 3d 28 8e 00 3d 32 18 18 3d
       -0.019042013 0.05305668 0.03138557 0.03713245
000230 5c 99 cc 3d 65 16 8f bd 65 a0 ad bd f6 e9 bb 3d
       0.099901885 -0.06986693 -0.084778585 0.09175484
000240 99 fb af bc b1 ee fc bc a8 62 01 bd ba 21 76 bc
       -0.021482276 -0.030875536 -0.031588227 -0.0150226895
000250 46 01 ba 3d c5 0f ac bd eb cc c4 bc 21 05 8b bd
       0.09082274 -0.08401445 -0.024023494 -0.06788088
000260 29 3b 57 bc d8 cc e0 3d 78 88 04 bd 87 74 0c bd
       -0.0131366635 0.10976571 -0.03235671 -0.034290817
000270 a4 fe 04 bd 8d b7 93 3d fd 01 64 3c 48 f7 1b 3c
       -0.032469407 0.07212744 0.01391649 0.009519406
000280 c1 87 73 bd 38 99 21 3d cb a4 b3 bd db 53 83 bd
       -0.059455637 0.03945276 -0.08771666 -0.064124785
000290 55 65 a5 bd e6 dd 8b bc 17 bc d5 3d eb 95 c6 bd
       -0.08075968 -0.017073583 0.10436266 -0.09696563
0002a0 b6 0b 1d 3d 6d 91 d6 bd b9 6d c2 bc b9 44 62 3d
       0.038341247 -0.104769565 -0.02373396 0.05524132
0002b0 b7 a7 d2 bd 2a 59 8d 3c b2 1f d7 bd cc ce a7 bd
       -0.10285895 0.01725443 -0.10504092 -0.0819374
0002c0 56 a2 90 3d 25 58 70 bb c5 3b fe 3b 26 44 94 bd
       0.07062213 -0.0036673632 0.00775859 -0.07239561
0002d0 fd c4 58 bc 56 a8 ac bd b1 97 31 bd b1 4f b3 bd
       -0.013230559 -0.08430545 -0.043357555 -0.08755434
0002e0 f7 38 20 bd 39 23 fc 3c 91 bc 44 3d 00 3a db 3d
       -0.039116826 0.030778514 0.048031393 0.10704422
0002f0 c7 a5 23 3d 65 3f 1c bd 3a 86 70 bd 22 88 3c 3c
       0.03995302 -0.038146395 -0.05872176 0.011507066
000300 d4 06 c9 3d 60 1a c8 3c f4 31 d3 bd 93 c4 b4 3c
       0.098157555 0.02442664 -0.10312262 0.02206639
000310 d8 bd 7e bd 5d 4a dc bd 72 87 80 3d ee b4 f1 bb
       -0.062192768 -0.10756371 0.06275834 -0.007376305
000320 bd a5 04 3d aa 82 84 3d f9 9a a1 3b 44 36 81 bd
       0.032384623 0.06470235 0.0049318043 -0.063091785
000330 6a 5b 1c bd 07 24 59 3d a8 77 be bd 86 cd 41 bb
       -0.038173117 0.053012874 -0.09300166 -0.0029571964
000340 8a 46 63 bd c9 5a ad 3d 7f b2 53 3c e1 9a 20 bc
       -0.055487193 0.084645815 0.012920975 -0.009802551
000350 b1 ab e0 bd b8 e6 68 bd 50 10 04 3c 80 7e cf bd
       -0.109702475 -0.056860656 0.00806053 -0.1013155
000360 db 3d fa 3c 22 56 b8 bd a5 1d c8 bb 48 23 d2 bd
       0.030547073 -0.090008035 -0.0061070495 -0.102606356
000370 76 62 9b 3d ba 0a 50 bd 08 84 e1 bd ba a6 95 3d
       0.07587139 -0.05079148 -0.11011511 0.07307191
000380 93 19 d7 bc 38 c6 42 bd 81 a3 97 3d 7d 4a 3f 3d
       -0.026257312 -0.047552317 0.07404233 0.046701897
000390 71 61 95 bc f2 16 f0 bb 58 dc 84 bd e2 14 15 bd
       -0.01823494 -0.007326954 -0.0648734 -0.03639687
0003a0 03 45 c4 bd cd 1a b1 bd fe 84 d9 bd b9 bb ba 3c
       -0.095834754 -0.0864769 -0.10621069 0.022794591
0003b0 17 a7 7e 3d 6a bf 89 3c 11 bd cc 3c b5 d9 df bd
       0.062171068 0.016814906 0.024992498 -0.10930196
0003c0 a5 a2 bb 3c b6 bd 3f 3d 6b b3 81 3d 14 a8 90 3d
       0.022904703 0.04681178 0.063330494 0.07063308
0003d0 eb 77 35 3d 74 4e e9 b9 c0 c2 04 bd bd 8f 5f 3d
       0.044303816 -0.00044499675 -0.03241229 0.05458044
0003e0 68 fc 69 3d da be 59 ba 97 8f 8f 3c a4 14 88 3d
       0.05712548 -0.0008306332 0.017524524 0.06644562
0003f0 76 cd 32 3d 1a 28 c9 3d 44 4c c8 bd 33 c4 24 bd
       0.043652974 0.09822102 -0.097801715 -0.040226173

encoder.input_proj.bias f4 [256]
000000 a6 61 49 bd 5a 99 b5 bc 59 1d 37 bd ff 84 27 bd
       -0.04916539 -0.02216785 -0.044705722 -0.04089832
000010 3f 7d dd 3d 14 b8 b8 3d c4 cc a7 bd f4 db 01 bd
       0.108149044 0.09019485 -0.08193353 -0.031703904
000020 5e 2a 1e bd 14 f9 8d 3d 92 4d 58 3c bd fb ba 3c
       -0.038614623 0.069322735 0.013202088 0.022825116
000030 10 01 58 bd f3 8f d2 3d c2 ca f0 bc 62 cf 7c bd
       -0.05273539 0.102813624 -0.029393557 -0.061721213
000040 db e7 96 bc e5 d0 88 3c 7c 13 7d bd d3 54 da 3d
       -0.018421104 0.016701171 -0.06178616 0.1066071
000050 f5 cb 16 bc 9e 7a 9c 3c 92 89 17 ba 25 7d a6 3d
       -0.009203901 0.019101437 -0.00057806924 0.08129338
000060 3f ce 43 3d 4c 9b 85 3d f0 22 b5 3d 93 7a c8 3c
       0.047804113 0.06523761 0.088445544 0.02447251
000070 bd 36 51 3d e4 2a ae 3c 79 ec 14 bd 37 d3 5d bd
       0.051077593 0.021260686 -0.03635833 -0.05415651
000080 b1 66 a8 bd bb 86 4e bd 23 32 11 bd 4c 42 b8 bb
       -0.08222712 -0.050421458 -0.035448205 -0.0056231376
000090 1c 80 8a bc e7 16 8d 3d 7e a6 88 bd 6b 41 27 3d
       -0.01690679 0.06889134 -0.06672381 0.04083387
0000a0 e5 3d bb bd 4f b8 21 3c ce 52 c4 bd 3a 20 c3 3d
       -0.09142665 0.009870603 -0.09586106 0.09527631
0000b0 04 8c 71 bd 93 d2 af bc 76 e2 6f bd 9d 84 c8 3d
       -0.05897142 -0.021462714 -0.05856558 0.09790919
0000c0 b1 a7 23 bd 31 43 8d 3d 5e f0 5a 3d 34 da e2 bd
       -0.039954845 0.06897581 0.05345189 -0.11076775
0000d0 f6 24 8e bb 67 a7 66 bd 94 7b 76 3d e8 41 3b 3d
       -0.004337902 -0.05631199 0.060176447 0.04571715
0000e0 0a 22 c1 bd 16 94 6e bc d0 18 23 bb f1 66 35 bd
       -0.094303206 -0.014561674 -0.0024886616 -0.044287626
0000f0 dc d4 e4 bd 1d 04 9a bd 67 27 03 bd 71 d5 c8 bc
       -0.11173412 -0.07520316 -0.03202 -0.02451584
000100 f9 e8 c4 bd 0c b2 85 bd 9c ec 81 3a 0d e6 9e 3d
       -0.096147485 -0.065281 0.0009912434 0.077587225
000110 6c 60 d8 3d 63 25 29 bd e7 5f 83 3d 3a f0 1d bd
       0.10565266 -0.04129542 0.06414776 -0.038559176
000120 f9 fd 79 bd 1c e4 46 bd 4e 2c a1 bd b8 13 30 bd
       -0.061033223 -0.048557386 -0.078697786 -0.042987555
000130 3c fb bb bd f7 1c da 3d 90 0f 38 3d 70 76 65 3d
       -0.091787785 0.10650056 0.044936717 0.056021154
000140 8b ac 2c 3d 7b 6d d2 bd c3 24 74 3d 0f a8 a7 3d
       0.042156737 -0.10274788 0.05960537 0.081863515
000150 77 34 0f 3d fc 9b 6b 3c 77 a5 3e 3d 04 b7 e8 bd
       0.034962144 0.014380451 0.04654452 -0.113630325
000160 a7 d5 c7 bd 10 7f 4e bd 6b 59 5b bd 15 5d 34 bd
       -0.09757548 -0.050414145 -0.053552072 -0.044034082
000170 ce e5 f9 3c 2d 8e 92 bd 19 0b b3 3d 92 52 0d bc
       0.030505087 -0.07156024 0.08742351 -0.008625643
000180 fc 63 bd ba dc a2 9f bc 9b b8 4f 3d 97 94 dc 3d
       -0.0014449353 -0.019486837 0.050713163 0.10770529
000190 71 65 1d bd a4 cd 7a 3d 4a 1b 4b bd 7b cb 9d bd
       -0.03842682 0.06123127 -0.04958657 -0.077048264
0001a0 80 c1 4c 3d df af 38 bb 12 ca 1d 3c 7b c1 50 3d
       0.049989223 -0.0028181 0.009630697 0.050965767
0001b0 bf 94 7b bd 43 9b ac bd 9e 4f b6 bd 17 62 91 bb
       -0.061421152 -0.08428051 -0.089019045 -0.004436742
0001c0 9d 92 87 bd ae 3f d3 bd fb 58 c3 bc 7c ec 07 bd
       -0.06619761 -0.1031488 -0.02384614 -0.033184513
0001d0 ed a7 9c bc 05 9a a2 bd 2c aa de bd 40 30 89 3d
       -0.019123042 -0.07939533 -0.108723015 0.06698656
0001e0 a2 01 62 bd 91 3d 7e 3d 27 bf dc 3d 67 d3 dd bd
       -0.05517734 0.062070433 0.10778647 -0.108313374
0001f0 37 92 82 bc 89 67 b4 bd 36 f4 63 bc fa 03 9d 3d
       -0.015938861 -0.0880881 -0.013913205 0.07666774
000200 e6 30 28 bd 07 8f 70 bd 7d d3 be 3c ee 13 79 3d
       -0.04106226 -0.05873015 0.023294205 0.060810022
000210 cb d4 2d 3d cf 0e 55 bd 7e 11 d3 ba ce 5e 31 bd
       0.042439263 -0.052016076 -0.0016103236 -0.043303303
000220 d7 2e b0 bc 96 71 90 3d da 46 85 3c 77 f5 f7 3c
       -0.02150671 0.07052915 0.016269136 0.030268414
000230 87 8b a8 3d 92 40 88 bd f5 3b e0 3d d1 ff 8b 3d
       0.08229738 -0.06652941 0.10948936 0.068359025
000240 b4 aa 8b 3d cd 09 9f bd 31 34 83 3d 23 27 14 bc
       0.068196684 -0.07765541 0.06406439 -0.009042534
000250 c3 28 57 3c 6d 4f 7c 3c 8f 54 b1 bd 2d 0e 9a 3d
       0.013132277 0.015399796 -0.086587064 0.07522235
000260 b8 67 6d 3d e2 81 b9 3d 02 11 9a bc 4c 4c 91 bb
       0.057960242 0.09057976 -0.018806938 -0.004434144
000270 d1 cc 99 3d 79 99 43 3c ea cb 01 3d ba d4 0d 3d
       0.07509769 0.011938446 0.03168861 0.0346267
000280 1d 01 d2 bb c8 5c b5 bd 11 0b f8 bc 18 b1 9a bd
       -0.006408824 -0.08855587 -0.030278714 -0.07553309
000290 6b ad d5 3d 5a 58 7e 3d f0 d5 9b 3d 6a 90 75 3d
       0.104334675 0.062095977 0.07609165 0.059952177
0002a0 2c 22 c3 bd d4 ca 85 3d 90 15 d2 bc a8 8d 14 3d
       -0.09528002 0.06532827 -0.025645047 0.036267906
0002b0 5a 05 ac 3c 89 30 cd 3c 35 c1 9c bd c6 34 b0 3d
       0.020998646 0.025047557 -0.07654039 0.08603816
0002c0 39 67 7f 3c 36 30 83 3d cc 00 cd bd 8e 84 c2 bd
       0.015588575 0.0640568 -0.100099176 -0.09497939
0002d0 60 a7 7a 3d c2 ef 9c bd 01 a6 32 3d 34 e4 ab 3d
       0.061194777 -0.07662918 0.043615345 0.08393136
0002e0 e4 4a 65 bd 6f 87 8e bd b1 e2 65 3d 78 1b 0e bb
       -0.055979624 -0.06959426 0.056124393 -0.0021683853
0002f0 e3 f0 db bc 99 4d 7f 3d 94 66 e1 bd 9b b2 61 bd
       -0.026848262 0.062329862 -0.11005893 -0.055101972
000300 69 be b6 3d 2c 45 84 bd 46 0c a3 3d 9d e8 c0 bb
       0.089230366 -0.06458506 0.07961325 -0.0058871047
000310 6f 9d 9b 3b 7e 46 af 3c a7 38 8c bd 63 d2 32 3d
       0.004748992 0.021395918 -0.06846743 0.04365767
000320 6f 11 e6 bd 97 02 d6 bc c5 40 9c bc fb 28 1c bd
       -0.11233794 -0.026124282 -0.019073853 -0.03812502
000330 ee 5a d0 3d 0c 1d df 3d 96 45 d1 3d d0 a0 95 bc
       0.101735935 0.10894212 0.102183506 -0.018265158
000340 32 4d 6b 3d 48 e5 24 3d c2 6d 10 bc ed 8f 5c ba
       0.057446666 0.040257722 -0.008815231 -0.00084137806
000350 0d 86 86 3b f6 27 4a 3c e2 06 c1 bd 53 c8 3e bd
       0.0041053356 0.012338629 -0.09425141 -0.046577763
000360 32 6c db 3a 9a fa c9 3d 14 a1 8f bd 7f 17 9c 3d
       0.0016740619 0.098622516 -0.07013145 0.07621669
000370 8c 72 99 bd 83 37 31 bd e8 07 e3 bd b0 da de bd
       -0.07492551 -0.04326583 -0.11085492 -0.10881555
000380 b9 c9 3a 3d 9f 8d 19 bd 70 8d a0 bd cc f4 21 bd
       0.045602534 -0.037488576 -0.07839477 -0.039540097
000390 40 fc 75 bc 73 84 56 bd 10 e9 82 3d ed f0 89 3d
       -0.015013754 -0.052372407 0.063921094 0.06735406
0003a0 a6 5b e1 bd 8f fd 35 bd 77 18 be 3d 1f 03 64 3d
       -0.11003809 -0.044431265 0.0928201 0.05566704
0003b0 26 8b b9 bc b7 7e 26 3d 5a a0 64 3d 0f b8 f6 3c
       -0.022649359 0.04064819 0.055816986 0.030117063
0003c0 ac e5 52 3d 1c 8a 7c bc 83 78 b3 bd 0b f9 5c bd
       0.051488563 -0.015413787 -0.0876322 -0.053948443
0003d0 da 63 b8 bd aa 62 33 bd d5 09 b2 3d d1 b1 03 bd
       -0.0900342 -0.043795265 0.086932816 -0.032152
0003e0 0b 93 71 3c f7 99 ba bd 3f 7c 3f 3d 1f 3c 02 bd
       0.01474453 -0.09111398 0.04674935 -0.031795617
0003f0 20 2f a0 3d 48 fa 1d 3d e9 8e e3 bc 8b 80 49 bd
       0.078214884 0.038568765 -0.027778106 -0.049194854

encoder.lstm.weight_ih_l0 f4 [128, 256]
000000 3f b8 07 be 68 42 0b be fd a9 1b 3e b3 68 cd bd
       -0.13253878 -0.1359955 0.15201564 -0.100297354
000010 6f a6 18 be 5e 15 05 3d 9e 7d 04 be 92 e6 17 be
       -0.1490724 0.03249108 -0.12938544 -0.1483405
000020 db ad 2d be c2 48 e6 3d 13 59 a1 3d 0d d5 68 3d
       -0.16960852 0.11244346 0.07878318 0.056843806
000030 01 c6 a9 3c 5e 5d 98 bd b1 a5 c0 bd f6 26 65 bd
       0.020724298 -0.074396834 -0.09406603 -0.05594536
000040 9c f2 12 be 3c 84 22 be 15 d8 8a 3d 9e 85 14 3e
       -0.1435036 -0.15870756 0.067794956 0.14504096
000050 5b 54 26 be 2c 88 13 3e 4c c9 55 bd fb 66 09 3e
       -0.16243117 0.14407414 -0.052193925 0.1341819
000060 fb 72 8c 3d 47 02 df 3d 8c 18 fa bb 40 ae 8a bd
       0.06857868 0.10889106 -0.0076323207 -0.06771517
000070 6e e7 04 3d 2a fa ce bd 1b dd b2 bd ee da ca bd
       0.03244727 -0.10106309 -0.08733579 -0.09905039
000080 03 31 00 3d c5 dd 90 3c ee 8a c2 bc f8 54 23 3e
       0.03129674 0.017683873 -0.023747887 0.15950382
000090 67 dc 3f 3d 62 b1 e6 3d 76 29 70 3d 9c 89 9c 3d
       0.04684105 0.11264302 0.05863329 0.076434344
0000a0 62 2e 8d bd b9 03 21 bd 4a 90 ff bd e1 70 83 bd
       -0.068936124 -0.03931019 -0.12478693 -0.06418014
0000b0 63 b3 df bd 42 0d 9d 3d a0 1f 8f 3d 0e 94 1a be
       -0.10922887 0.07668544 0.06988454 -0.15095541
0000c0 d8 34 05 3e f7 92 c6 3c 2e 00 27 3e 99 74 b2 bd
       0.1300844 0.02424 0.16308662 -0.087136455
0000d0 34 c9 fa 3d 93 dc 29 3e b9 23 4f bd 50 fa 68 3d
       0.12245408 0.16588049 -0.050571177 0.05687934
0000e0 2e 27 9c 3d 1b 70 a6 3d 07 e8 a2 3d 48 e7 41 bb
       0.076246604 0.08126851 0.07954412 -0.0029587317
0000f0 ee 4b 05 3e 4c b9 55 bd 02 f1 81 bd 86 6b fa 3d
       0.13017246 -0.052178666 -0.06344797 0.1222754
000100 30 b2 54 3c 71 48 04 3e 32 d6 bb 3d 92 d2 f8 3d
       0.012981936 0.12918259 0.09171714 0.12149538
000110 3c 71 9e bd 53 f0 19 3e 2a b0 0b bd bf 79 90 3c
       -0.077364415 0.15033083 -0.03410355 0.017636178
000120 ee 5f 12 3d 81 2e ba 3b a0 c1 2a bc e5 9f 84 38
       0.035736017 0.005681813 -0.01042214 6.324033e-05
000130 4b 00 15 3c 25 bb 8e 3d 0e 95 f8 3d ab 9b 19 be
       0.009094308 0.06969289 0.12137805 -0.15000789
000140 ab 0f ef bd 59 ba 33 3c 55 ac a3 3c 9e d4 c5 3d
       -0.1167291 0.010969722 0.019979635 0.09659694
000150 ca ce ec bd 40 d9 93 bd 4c 70 66 bd 44 50 05 bd
       -0.115628794 -0.072191715 -0.05625944 -0.03254725
000160 36 6d 92 bc 64 59 fd 3d 97 63 9f 3d 2f 9d 90 3d
       -0.017874341 0.123705655 0.07782667 0.070612304
000170 59 0b 25 be 37 49 05 3e cb 01 30 be 5d e5 ca 3d
       -0.1611761 0.1301621 -0.17188184 0.09907029
000180 c0 bc 4f 3d 94 f8 47 3a cb 9b 28 be 70 79 08 bd
       0.050717115 0.00076282886 -0.1646568 -0.033318937
000190 84 d6 2d 3e a5 b7 bb bc 49 4d ab 3d 6d 9b 86 bd
       0.16976362 -0.022914717 0.0836435 -0.06572614
0001a0 5a 4f 95 bb 85 e7 a1 bd 28 59 2b 3e de 42 9c 3d
       -0.0045565786 -0.07905487 0.16733229 0.076299414
0001b0 71 04 0b 3e 79 f7 ae 3d be c2 19 3d 11 5c 64 3c
       0.13575913 0.085432954 0.037539236 0.013937966
0001c0 b7 ad a8 3d f9 a9 7f bd 7d 49 03 3e 64 9a 2f 3e
       0.082362585 -0.062417958 0.12821002 0.17148739
0001d0 9c 52 25 be 2c 08 34 be 94 e7 1e be c7 5d 18 be
       -0.16144794 -0.17581242 -0.15518028 -0.14879523
0001e0 32 bd 1a be b6 fe f5 3d 60 16 2a 3c 45 79 44 bd
       -0.15111235 0.12011473 0.010381311 -0.047967214
0001f0 61 3f 8c bd 19 69 cd 3c 0e 8e 21 3e e8 3c f0 bd
       -0.06848026 0.025074529 0.15776846 -0.11730367
000200 62 a1 84 bc a1 72 d5 bc 99 d0 ba bd 33 83 b2 bc
       -0.016190235 -0.026055636 -0.09121818 -0.021791076
000210 e9 10 ad bd 28 ce 8c 3d 3e 2d 7a 3d 94 c8 a0 3c
       -0.08450491 0.06875259 0.061078303 0.019626893
000220 fd dd 06 3e 46 b3 54 3d cd 99 89 bd cf ad 2b 3e
       0.1317062 0.05192878 -0.06718788 0.16765521
000230 79 be 0a be a5 1c 0c be 73 e8 d0 3d 6c e8 1c bd
       -0.13549222 -0.13682802 0.10200586 -0.038307592
000240 1a ad 6d bd 2d 09 94 3c e5 9b b4 bd 9c 10 5f bd
       -0.05802641 0.018070782 -0.08818797 -0.0544592
000250 f8 dc 02 be b8 9d 8a bd 9a 2a e6 3b 73 af 0f be
       -0.12779605 -0.06768364 0.0070241215 -0.14031772
000260 f8 ad 9c bd 72 93 07 be 96 99 20 3e ce 4b 9f bd
       -0.076503694 -0.1323984 0.15683588 -0.077781305
000270 54 4f 16 3e bc e3 f7 3b 1a c6 0e 3e 0c 97 06 be
       0.14678699 0.00756499 0.13942757 -0.13143557
000280 ca eb f2 bd fe e3 ce 3d f1 6b d9 bd 50 0d f0 bd
       -0.118613794 0.1010208 -0.10616291 -0.11721289
000290 6e 18 19 3e c2 02 57 3d ae a2 05 3e d3 33 b0 bc
       0.14950725 0.052492864 0.13050339 -0.021509087
0002a0 fd 91 04 3d d9 63 27 be c7 1f 6d 3d 79 b6 16 3d
       0.032365788 -0.16346683 0.057891633 0.036795113
0002b0 dd 65 db bd f0 2f 14 be f2 3b e0 bc 3b 1a 9d bc
       -0.10712788 -0.14471412 -0.027372334 -0.019177547
0002c0 e8 73 03 3e 31 6f f8 3d 58 6b 3a 3d d2 6d a0 3d
       0.12837183 0.12130583 0.045512527 0.078334466
0002d0 86 88 57 bc e1 44 2f 3e 18 30 f5 bc fa 2b 65 bc
       -0.013155108 0.17116119 -0.02993016 -0.013987536
0002e0 f7 45 79 3d 9a a6 00 3e 39 f4 dd 3c 66 77 81 3d
       0.06085774 0.12563553 0.027093993 0.063216016
0002f0 86 f3 15 bd 15 29 ef 3d a8 b0 e2 bd b1 5f f1 bd
       -0.036609195 0.11677758 -0.11068851 -0.1178583
000300 81 7c df 3d 2b 25 8d bd 59 2b b3 3d 1d e9 96 bd
       0.10912419 -0.06891855 0.08748502 -0.073686816
000310 7e 44 32 bd 84 b7 20 3e 0e 99 fd bd 1e 5f 01 be
       -0.04352235 0.15695006 -0.123827085 -0.1263394
000320 cb 9e 65 bd 45 2c 05 3e 72 46 ba 3c 8e e1 0a 3d
       -0.05605964 0.13005169 0.022738669 0.033906512
000330 79 5a 01 3e 5b 1c 0a 3d ca 3a fa bd d4 c6 21 be
       0.12632169 0.033718448 -0.122182444 -0.15798503
000340 1a d1 e1 bd fd ce f0 3d 44 d6 54 bd bc de 81 3d
       -0.11026211 0.1175823 -0.051962152 0.06341311
000350 88 25 08 be 62 b3 27 3e 87 8f dd 3d 1b 1a 1f be
       -0.13295567 0.16377023 0.10818391 -0.15537302
000360 06 70 04 bd fd 9f a3 3c 07 9c af 3d bb f0 a4 3d
       -0.032333396 0.01997375 0.08574682 0.08053728
000370 5e cc 88 3c 52 18 81 3d 26 05 df bd b2 c2 bf 3c
       0.016699012 0.06303467 -0.10889654 0.023408268
000380 76 48 26 3e 4d 3c 72 bd 62 d2 cf bd 64 9b c8 bd
       0.16238579 -0.05913954 -0.10147549 -0.097952634
000390 df 04 57 3b ba 23 27 3e 5c fd 98 3c 98 ea 4e bb
       0.00328093 0.16322222 0.018675499 -0.0031572934
0003a0 5d 9e 05 be 02 41 9c 3d e9 81 1e bc 98 1a 29 3d
       -0.13048692 0.07629587 -0.009674528 0.041285127
0003b0 e6 c1 67 bc 02 ad 1d bc 4e 52 0e be b6 4c 12 3e
       -0.01414535 -0.009623768 -0.13898584 0.14287075
0003c0 ef 06 31 3d 07 26 0a be 5d b4 0c bd 64 70 38 3d
       0.043219503 -0.13491069 -0.034351695 0.04502906
0003d0 b0 c3 32 3e 9d f4 d7 3c de fe 20 3c 4a ec c7 bd
       0.17457461 0.026361758 0.00982639 -0.097618654
0003e0 c6 5a ff 3c 4f 8c 20 be 69 53 ac bd a3 be 1d be
       0.031171214 -0.15678523 -0.08414347 -0.15404753
0003f0 87 46 d3 bd 63 86 a8 3d 2c b2 f2 3d 79 56 1d be
       -0.103161864 0.08228757 0.1185039 -0.15365018

encoder.lstm.weight_hh_l0 f4 [128, 32]
000000 39 6b e3 bd 4a 4a af bd d1 d4 90 3d 2e 35 16 be
       -0.111044355 -0.085590914 0.070718415 -0.14668724
000010 77 d1 f3 bd e1 ed 2e bc 81 43 df 3a 81 f1 11 3e
       -0.119051866 -0.010676832 0.0017033668 0.14252283
000020 d6 8a 12 3d 72 5f 9b bc 45 14 79 bd 74 ed f2 3d
       0.035776936 -0.01896641 -0.060810346 0.11861697
000030 2b 5b c7 3d 6a da 8f bd e9 cc 94 bd 94 fc 46 3b
       0.09734186 -0.07024081 -0.07265646 0.003036295
000040 b0 ca 0b bd f6 e0 cb bc 5a 48 84 bd 7b 01 cc 3d
       -0.034128845 -0.024887543 -0.064591125 0.0996122
000050 60 65 f6 3d d9 05 53 3d 93 ea 05 3e d9 3f a8 3d
       0.120310545 0.05151925 0.13077764 0.08215303
000060 3a 17 c0 bd 6a 74 6d bd 12 83 c6 bd 23 22 0d 3e
       -0.0937943 -0.05797235 -0.096929684 0.13782553
000070 f6 32 b5 3d c0 28 a2 3d 4e 38 b7 bd 51 bf 4d 3d
       0.08847611 0.07917929 -0.08946286 0.05023128
000080 25 dd be 3d 4d 96 51 bd 0c 71 33 3d 09 a3 b3 bc
       0.09319524 -0.05116873 0.04380898 -0.021928327
000090 77 39 bf bd d8 ee d0 bd 5d a6 00 3c f0 64 0b be
       -0.093371324 -0.10201806 0.007852164 -0.13612723
0000a0 6e c0 84 bd 60 b8 00 be 81 ea 0c bc 92 5b d6 3d
       -0.064820156 -0.12570333 -0.008600832 0.104666844
0000b0 84 cd 22 be ac ad 81 3d cf ad 07 3e 41 f1 fd bd
       -0.1589871 0.063319534 0.13249896 -0.12399531
0000c0 b7 b1 a5 bd 76 c8 1f 3d 6b 37 6e bd 15 02 82 3d
       -0.08090537 0.039009534 -0.05815832 0.06348053
0000d0 3d 56 09 be fb 31 b2 3d b0 d7 43 bd 54 93 f1 ba
       -0.13411804 0.08700939 -0.047813118 -0.0018430748
0000e0 79 2d 73 bd 0a 41 05 ba 07 39 26 be 67 e2 c3 3d
       -0.059369538 -0.0005083239 -0.16232692 0.09564667
0000f0 dc 92 1c be 64 59 b3 bd ee f8 bd bd 11 a3 03 be
       -0.15290397 -0.08757284 -0.09275995 -0.12855174
000100 f5 87 ea bd 45 66 45 3c de db 88 3b aa 99 21 be
       -0.11451713 0.012048309 0.004176601 -0.15781274
000110 8f 6a 8e 3d 16 8b 9a 3d e2 86 55 bd 80 e4 cd 3d
       0.06953918 0.0754606 -0.052130587 0.100533485
000120 35 64 9f 3d c6 99 83 b9 a4 3c a1 3c 1c 56 ba 3d
       0.07782785 -0.00025100837 0.019682236 0.09098455
000130 37 d9 47 b9 3c cd 9f ba 88 ac 1f ba 6d 1c a8 3d
       -0.00019059038 -0.0012191902 -0.0006091078 0.08208547
000140 21 90 c4 bc 64 1e e7 bd 76 d1 1f b9 c1 7b ca 3d
       -0.023994507 -0.112850934 -0.00015241452 0.098868854
000150 d5 e1 0f be 94 7a 61 3d 1e d8 cc 3c c4 93 87 ba
       -0.14050992 0.05504854 0.025005396 -0.001034372
000160 6f a0 02 bd 1b 9e 71 3d 77 06 90 bd 83 58 17 3e
       -0.031891283 0.05898867 -0.07032483 0.14779858
000170 c8 b2 39 bc 53 59 10 be d4 36 54 bb f0 92 a6 bd
       -0.011334129 -0.14096574 -0.0032381313 -0.08133495
000180 d0 ca 12 3c 35 47 3b bd f5 c8 fd 3d d5 78 3b bb
       0.008959487 -0.045722205 0.12391845 -0.0028605957
000190 34 bc 83 bc ed 58 c3 3d 38 f7 5b 3c 03 0d 2c bd
       -0.016080953 0.095384456 0.013425641 -0.042004596
0001a0 1c 91 22 3e b2 08 3b bd 9c 7e 65 bb 0d 39 05 3e
       0.15875667 -0.04566259 -0.0035018092 0.13010044
0001b0 a3 d7 cc bb 8f a5 8f 3a 08 f5 2e 3c 38 c8 bd bd
       -0.006251292 0.0010959374 0.010678537 -0.09266704
0001c0 60 01 af 3d be 62 be 3d f7 28 eb 3d fd 8d 13 3e
       0.08545184 0.09296177 0.11482423 0.14409633
0001d0 90 b1 3f bc b2 48 f9 3d ac 40 92 bd e4 d0 e8 3d
       -0.011700049 0.12172069 -0.071412414 0.11367968
0001e0 d2 7d 39 3d 95 2f 0c bc cd 53 4e bd 07 b8 ec 3c
       0.045286007 -0.008556266 -0.050372887 0.028896345
0001f0 fd 94 d3 3d 04 29 0c 3e a8 d0 06 be b7 cc 56 bd
       0.10331152 0.13687521 -0.13165534 -0.052441325
000200 3a 17 22 be 31 d9 f6 bd f3 e5 51 3c 64 43 ec bd
       -0.15829173 -0.12053145 0.012811172 -0.11536291
000210 e5 6b c8 3c e5 bb e2 3d 83 1c 6e b8 fa 50 df bd
       0.02446551 0.11070994 -5.6770175e-05 -0.10904117
000220 79 64 5a bc c4 d6 8e bd 43 b8 a7 3d 7a 29 d8 3c
       -0.013329619 -0.06974557 0.08189442 0.026386965
000230 16 e9 52 3d fe 10 22 3e d1 f5 2c bd 45 db 35 bd
       0.05149182 0.15826795 -0.042226616 -0.044398565
000240 d5 25 01 be 2f a1 07 3e 7d d4 b2 bd e4 1d 9e bd
       -0.12612088 0.1324508 -0.08731935 -0.07720545
000250 ae 7f cd 3d ec 69 39 bb 39 3e 93 bd 1b f1 d9 3d
       0.100341186 -0.0028291894 -0.071896024 0.1064169
000260 13 64 b5 3b 63 9a d3 3d 4e b3 a7 3d 2f 5c 84 bc
       0.0055356114 0.10332181 0.081884965 -0.016157238
000270 90 f2 ce 3d b9 78 a6 bd 36 5c 10 be ea 34 1a be
       0.10104859 -0.08128495 -0.14097676 -0.15059248
000280 1e 50 c8 39 31 05 17 3d 0b 14 5b ba 9c c4 56 3c
       0.00038206665 0.036870185 -0.00083571736 0.013108399
000290 c0 c1 da 3c b3 67 e2 bd 7f 10 1b be ee f4 dd 3b
       0.026703715 -0.11054935 -0.15143012 0.0067735827
0002a0 80 dc a2 3d 10 2c 0a 3e 1b 95 72 ba fa 73 87 3c
       0.07952213 0.13493371 -0.0009253786 0.016534794
0002b0 47 10 bf bc 60 3d 80 bd 6b 4c 88 bd b2 57 83 3d
       -0.023323191 -0.06261706 -0.066552006 0.06413211
0002c0 f9 72 7a 3d 34 94 20 3d e8 8a a3 ba 8f 62 a8 3d
       0.061144803 0.039203838 -0.001247731 0.082219236
0002d0 b8 7c 10 3d ff 18 e6 3c 1c c9 3d bd c0 d6 c1 bd
       0.03527519 0.028088091 -0.04633437 -0.094647884
0002e0 ea 08 80 3d 30 50 ea bd 70 8f 10 3d 11 c8 d8 3d
       0.062517 -0.11441076 0.035293043 0.10585035
0002f0 1e 10 eb b9 24 91 00 3e ec 20 09 bd 13 58 e2 bd
       -0.000448347 0.12555367 -0.033478662 -0.11051955
000300 b4 e2 0f 3d 4d 6c e1 bc 40 43 52 bd 97 a6 9a bd
       0.03512831 -0.027517462 -0.051333666 -0.07551306
000310 cf a8 c9 3b d5 4b ea 3d dd fc 83 3c 99 c6 9d 3d
       0.0061541568 0.11440245 0.016111786 0.07703895
000320 ba aa 0c be 74 b5 e3 bc 64 fe 1c be 75 3e c8 3d
       -0.13737002 -0.027796485 -0.15331417 0.09777538
000330 c2 d2 17 3d 27 86 01 bc d8 85 08 bd 9c 72 2d 3a
       0.03706623 -0.00790552 -0.03333077 0.00066165044
000340 12 00 dd 3d 89 15 a7 3c 33 76 1b 3e 45 dc cc 3d
       0.10791029 0.020396011 0.15181808 0.100029506
000350 d4 ff 8d bd 74 3b 96 bd 03 19 0b be bc c3 fa bc
       -0.06933561 -0.073355585 -0.1358376 -0.030610912
000360 1a fe 11 3e 7b 0b db bd c2 4c d5 bc 2c d6 ff bc
       0.14257088 -0.10695549 -0.026037578 -0.031230055
000370 c4 e9 f5 bd e0 ad 44 3a 1f b3 43 bc 20 e9 35 37
       -0.12007478 0.0007502716 -0.011944561 1.0842719e-05
000380 2a b5 aa bd e1 6c 1b be 2b 71 df bd 51 38 b4 3d
       -0.083353356 -0.15178253 -0.10910257 0.08799804
000390 8c d4 1e 3e 8b db 3d bc a4 60 04 3e 9c 1b 3e 3d
       0.15510768 -0.011587988 0.1292749 0.04641305
0003a0 85 92 6e 3d 9d e7 6e bd 4e 65 de 3c 45 69 64 3c
       0.0582452 -0.058326352 0.027147915 0.013941114
0003b0 2f 6a 72 3d 17 6e 9a bd 17 d6 22 3e d6 6a 6f 3d
       0.059183296 -0.07540529 0.15901981 0.058451496
0003c0 63 18 71 bc a6 59 01 be d2 ff 4b 3c c0 b8 81 bd
       -0.014715287 -0.12631854 0.012451129 -0.063340664
0003d0 26 bc 0b be 21 71 ed bc be 09 0a bd 05 c3 08 3e
       -0.13645992 -0.028984608 -0.033700697 0.13355644
0003e0 bb 10 4c bd a7 e0 b0 bc 50 8d 15 be 9e 61 ba 3d
       -0.049820643 -0.021591498 -0.14604688 0.0910065
0003f0 a7 a8 d1 3d e8 a7 72 3d 7a 9b ed bd 7d 34 9b bd
       0.10237246 0.05924216 -0.116019204 -0.07578371

encoder.lstm.bias_ih_l0 f4 [128]
000000 23 93 0b be 37 78 4e 3d 08 bf dd 3c c9 18 7f 3c
       -0.13630347 0.050407615 0.02706863 0.015569874
000010 ef fc c9 bd 4c ef 0b bb 18 00 e6 bc c7 e7 b0 bd
       -0.098626964 -0.002135235 -0.028076217 -0.08637958
000020 df c2 cf 3d 77 94 7d 3d 82 c7 21 be 5c 6a 00 be
       0.101445906 0.061909165 -0.15798762 -0.12540573
000030 c0 5f a2 3a ac 61 24 bb c0 8a 8e bc ff 30 e3 3c
       0.0012388155 -0.002508263 -0.017400146 0.027733324
000040 99 db 0a be b7 92 c2 bb f2 f6 2a be 13 98 03 3d
       -0.13560332 -0.0059379 -0.16695765 0.03212745
000050 b4 a2 8c bd 6c df b5 3b bc 53 96 3d 8a 0a 4a 3d
       -0.06866971 0.0055503156 0.0734019 0.049326457
000060 72 a9 65 bd b4 16 81 3d 43 e0 fa bd 32 ee 45 3d
       -0.0560698 0.063031584 -0.12249806 0.048322864
000070 83 d3 ae 3c 45 7d 2e bd 3a c2 c2 3d 4e 70 13 3e
       0.021341091 -0.042599935 0.09509702 0.1439831
000080 9d 07 1a be 9c 9f e7 3b 79 47 fd bd 43 78 89 39
       -0.15041967 0.0070685875 -0.12367148 0.00026220278
000090 68 45 49 bd cd 80 bc 3c e3 56 17 be 1e ba 74 bd
       -0.049138457 0.023010636 -0.14779238 -0.059747808
0000a0 47 53 7f 3d 4f 19 03 be 0c 2f 0a 3e 01 bf 8a 3d
       0.06233528 -0.12802623 0.1349451 0.06774712
0000b0 8f 5b 21 3e d9 83 d5 3d 14 d9 75 bd 8b a6 27 bd
       0.15757583 0.104255386 -0.060021475 -0.040930312
0000c0 a6 38 04 3e e2 90 01 be 34 79 4f 3c 27 6d 85 bd
       0.12912235 -0.12652925 0.012663174 -0.0651496
0000d0 a0 8b f6 3d 11 9b ff bd 33 26 1a be e9 34 98 bd
       0.1203835 -0.124807484 -0.15053634 -0.07431967
0000e0 71 27 b5 3c 92 dd 3a bc b2 76 58 3d 2d 2b f1 3c
       0.022113534 -0.011405366 0.05284757 0.029439533
0000f0 83 53 b1 3c 36 a9 57 3c 34 0a 29 3e 56 83 ec bd
       0.021646267 0.013162902 0.16507798 -0.11548488
000100 5d 9f 0b 3e ec 91 f2 3d 6d b9 97 bd fa 01 16 be
       0.13635011 0.11844239 -0.07408414 -0.14649191
000110 4a 64 0e bd cb 07 ac bd 69 27 af bb ee 7d 2e bc
       -0.03476361 -0.08399924 -0.005345274 -0.010650141
000120 3f 61 70 bd 35 42 d9 3d 40 f8 b4 bc 81 9b 59 3d
       -0.05868649 0.10608331 -0.022091031 0.053126816
000130 b8 b1 02 bb cc f8 07 bd c9 fe 8c ba ec cc e7 3d
       -0.0019942354 -0.033196256 -0.0010757084 0.113183826
000140 9e d5 f2 3b 86 76 68 bd 1b ae f4 3d 47 f5 0e bc
       0.007410719 -0.056753658 0.119472705 -0.008725471
000150 92 ca 3e bc 11 ae 67 3d bb e0 70 bd ea 22 49 3d
       -0.011644976 0.056562487 -0.05880807 0.049105562
000160 db 47 9d 3c e8 57 88 3d 07 ea e0 3c 9c 20 96 bd
       0.019199302 0.06657392 0.027455343 -0.073304385
000170 ff 30 09 3e 23 f6 0e 3e 03 85 61 3d 41 aa fe bd
       0.13397597 0.13961081 0.05505849 -0.12434817
000180 bc f5 32 bd c4 96 00 3e 95 67 ea 3d 48 c2 fa 3d
       -0.04369138 0.12557513 0.11445538 0.122440875
000190 ce c4 db bd bb 56 15 be 8d 9c de bc d9 60 0f 3e
       -0.10730897 -0.14583866 -0.027174259 0.14001788
0001a0 93 5b e0 bc 4f db 8e 3c 0f c3 5e bc 59 a3 14 bd
       -0.027387416 0.017438559 -0.01359631 -0.036288593
0001b0 ef 90 a0 bc 2d a5 63 bd 3c 1f 1d 3e 36 81 65 3d
       -0.01960036 -0.055577446 0.15343946 0.05603143
0001c0 2b bd 53 3d db 6c c5 3d 67 31 fa bd 6c 1f bb 3d
       0.051694077 0.09639903 -0.12216454 0.091368526
0001d0 db 3f c9 3d 1c 3e 5e 3d 0e 51 0b be 25 87 0e bd
       0.098266326 0.05425845 -0.13605139 -0.034796853
0001e0 f4 1e 29 bd d3 9f 57 bd cd 6e 76 bb ec ee aa 3b
       -0.041289285 -0.052642655 -0.0037602664 0.00521647
0001f0 f9 8b 30 be b9 83 cc 3d 91 e0 2e 3d 52 20 b6 3d
       -0.17240895 0.099860616 0.042694632 0.08892883

encoder.lstm.bias_hh_l0 f4 [128]
000000 01 56 99 3c ae 5c bd 3c 80 6e 1f 3d 25 0f d3 3d
       0.018717768 0.023115482 0.03892374 0.10305623
000010 0c d6 04 3e 06 3c f2 3d 15 a1 02 3e 51 5f d6 3c
       0.12972277 0.11827855 0.1275676 0.026168497
000020 ab 46 db 3c 24 5c 20 be a3 81 31 3d a8 8e fe bd
       0.026767096 -0.15660149 0.04333652 -0.12429553
000030 db 82 02 39 98 ad cf 3d 6f 25 0c 3d ce 04 91 3d
       0.00012446514 0.10140532 0.034215387 0.070809945
000040 c7 23 ee bc e2 cc df bd 6d 9a fe 3c 98 7a 1b be
       -0.029069794 -0.1092775 0.031079495 -0.15183485
000050 e1 fa 21 3d 9a 70 04 be 91 1c b8 3c e2 f1 d4 3d
       0.039545897 -0.12933579 0.022474559 0.10397698
000060 05 82 4a 3d 49 33 7a bc 53 77 3d bd a2 8a c1 bc
       0.049440403 -0.015271016 -0.046256375 -0.023625676
000070 b0 5c 02 bd a5 02 15 be 66 25 2b bd fc 3f c8 3d
       -0.031826675 -0.1455179 -0.041783713 0.09777829
000080 fb 48 e2 bd 3a 9a cb 3b 5e 3f 1e 3a ae cf ce 3d
       -0.11049076 0.0062134536 0.0006036664 0.100982055
000090 5e b3 ac bc 63 f4 ec bd ff fa c0 bd 4f c8 03 3d
       -0.021081623 -0.115700506 -0.09422874 0.03217345
0000a0 9b 71 c9 bb 88 0e 5e bd 0c 8a ca 3d cc 14 6f bd
       -0.006147576 -0.054213077 0.098896116 -0.058369443
0000b0 1a 01 2d bd 2e ca 23 be 49 e1 41 bd 4c f3 e2 3d
       -0.04223738 -0.15995094 -0.04733399 0.110815614
0000c0 fb c1 86 3d c7 65 21 be 89 62 41 3b 8e e2 7b 3c
       0.065799676 -0.15761481 0.0029508194 0.015373839
0000d0 f3 0e 24 be 1e d8 ae bd e2 ab b2 3c d1 17 60 bd
       -0.16021328 -0.08537315 0.021810476 -0.054710213
0000e0 52 54 d0 bd 52 26 95 3b 7c 76 25 be 83 fc bf bc
       -0.10172333 0.0045516873 -0.1615848 -0.023435837
0000f0 53 b4 b4 3d a9 4a fe 3d 1c fc 06 be aa 8b 2f 3e
       0.088234566 0.12416584 -0.1318211 0.17143121
000100 89 4c 5e bd 66 80 ac 3d b4 cb 4f 3a ff 42 2c bd
       -0.05427221 0.084229276 0.00079267775 -0.04205608
000110 38 0c d4 3d 4b b9 04 be c0 07 29 3d 4e 20 b1 bd
       0.10353893 -0.12961309 0.041267157 -0.0864874
000120 3a 53 15 bc 91 7c b2 bd 77 03 f5 3d c4 5d c3 bd
       -0.009114081 -0.087151654 0.119635515 -0.09539369
000130 08 28 1a 3e 66 f4 13 3e 64 1c 58 3d d7 11 8c 3d
       0.15054333 0.144487 0.05276145 0.0683934
000140 bd cd 41 3d 09 37 8a 38 0b 05 13 be a2 24 be 3d
       0.047315348 6.590604e-05 -0.14357392 0.09284331
000150 1f 5a ed 3d e6 a5 ee bd 16 f5 90 bd 8b b6 28 be
       0.11589455 -0.11652736 -0.070779964 -0.16475885
000160 5c 07 02 be d3 7b db 3d fb 67 d2 bd 18 09 fe bd
       -0.1269812 0.10716977 -0.10273739 -0.12404078
000170 98 64 d4 bd 60 27 02 3e 9f d4 74 bc d5 01 01 be
       -0.10370749 0.12710333 -0.014943271 -0.12598355
000180 7c 3b 13 3e 97 71 81 3d 23 46 60 bd 8b 47 ff b9
       0.1437816 0.06320494 -0.054754388 -0.00048690694
000190 b5 7f 25 3e 3a 51 43 bb 9c 56 72 bd d7 13 63 bc
       0.16161998 -0.0029803053 -0.05916463 -0.013859711
0001a0 9f 81 98 3d 3f 42 1d bc 19 10 72 3d 6e ef fa bd
       0.07446598 -0.009598314 0.059097383 -0.12252699
0001b0 8b 5d d9 ba 4c c5 04 3e f6 44 bc bd b4 95 2f 3e
       -0.0016583664 0.12965888 -0.09192841 0.17146951
0001c0 a1 b4 c1 bd fc 26 06 be ca db 65 3d 57 7b ea bd
       -0.0945828 -0.13100809 0.05611781 -0.114493065
0001d0 dc 27 ad 3d 51 f8 17 3e 93 26 ed bd e8 1e 88 3d
       0.08454868 0.14840819 -0.11579623 0.0664652
0001e0 7d 14 16 be 5f 6b 34 bd ff 37 d6 bd 19 7e a6 bd
       -0.14656253 -0.04404771 -0.10459899 -0.0812952
0001f0 fa 08 fd bc 22 f6 28 3d 8c 4c 36 3d b2 90 ef 3d
       -0.03088807 0.041250356 0.044506595 0.1169752

encoder.lstm.weight_ih_l0_reverse f4 [128, 256]
000000 d4 5c e5 bc c2 a1 9a 3d 14 09 ad 3d 2b 30 7a 3d
       -0.027998365 0.07550384 0.08448997 0.061081093
000010 d8 2a f8 3d ff 7c 2a bc 55 49 01 be c2 23 10 3e
       0.12117547 -0.010405778 -0.1262563 0.1407614
000020 11 d0 22 3b df 10 a9 bd a5 54 d7 3c 91 dc 77 bd
       0.0024843256 -0.08255171 0.026285479 -0.060513083
000030 35 02 24 be 4c ab 24 be 7e a4 66 bd 66 05 44 bd
       -0.16016467 -0.1608097 -0.056309216 -0.04785671
000040 33 61 60 bd 74 c2 d0 bd 07 4b 28 3e 7f 0a 26 3c
       -0.054780196 -0.10193339 0.1643487 0.010134338
000050 f6 f0 0c 3c cb cb cf bc b6 41 a6 3d ee 10 cd bc
       0.008602371 -0.02536573 0.08118002 -0.025032487
000060 11 5c ab bd 78 86 10 be 2e 1c ad 3d 5c 4b 22 be
       -0.0836717 -0.14113796 0.084526405 -0.1584906
000070 aa 38 52 3d b4 b2 15 be eb ec 99 3d 3c 4b 1c 3e
       0.05132357 -0.14618951 0.07515892 0.15263075
000080 41 48 a8 bc 41 c7 02 3e a7 34 f9 3d aa 38 1c bd
       -0.020542266 0.12771322 0.12168246 -0.038139977
000090 17 7e 26 bd bb 91 c1 bd bf af a1 bd 6b ea 24 be
       -0.040647592 -0.09451624 -0.07894849 -0.16105048
0000a0 9d cd 94 bb 2d ba 1d be f8 c9 b3 3d 51 65 12 3c
       -0.0045411126 -0.15403052 0.08778757 0.0089352885
0000b0 0f f7 fc bc b4 e0 f2 bd c1 07 93 bd cb fb f6 3d
       -0.030879525 -0.11859265 -0.07179213 0.120597444
0000c0 24 b0 cd 3c 09 6c e6 bd 0b 57 b3 3d 21 9b 08 bc
       0.025108404 -0.11251075 0.087568365 -0.008337767
0000d0 13 86 c9 bd cb ab ac bd ea d2 79 3d c2 a6 02 bd
       -0.09840026 -0.084312044 0.06099216 -0.031897314
0000e0 d9 2f 72 3d fc 3d 0a 3e 4d bc 03 3e 2a d8 9d bd
       0.059127662 0.13500208 0.128648 -0.07707246
0000f0 b7 f7 2f be 89 b4 4f bd 64 41 fb bd 32 d6 ef bd
       -0.1718434 -0.05070928 -0.12268332 -0.117107764
000100 5e c2 6f 3c e8 8e 7b 3d 28 4d e6 3d 9e d0 27 3e
       0.014633743 0.061415583 0.11245185 0.16388175
000110 74 e6 28 3e c5 09 2b be ca 13 f5 bd 13 04 d7 3d
       0.16494161 -0.16702946 -0.11966665 0.10498824
000120 a4 ab 9a 3c b4 0c f0 3a b0 46 d4 3c 57 b6 e2 bc
       0.018880673 0.0018314333 0.025912613 -0.027674837
000130 a0 e6 ab 3d f3 42 bc 3d ae b5 0b 3e 98 c1 30 be
       0.083935976 0.09192457 0.13643524 -0.1726135
000140 d9 3c 1c be ca f0 c1 bc c2 15 29 be 54 ac 1d 3e
       -0.15257587 -0.023674387 -0.16512206 0.15397769
000150 8b af 33 3e c8 c5 8a bd c1 d8 bc 3d b6 f3 d9 3d
       0.17547433 -0.06776005 0.0922103 0.10642187
000160 ec 6d 17 be 56 b1 32 be e7 ea cb bd ce 15 2d 3d
       -0.14788026 -0.17450461 -0.099569134 0.042257123
000170 e9 ec d1 bd 9b c6 ba 3b 1a 58 04 3e 86 51 b6 3d
       -0.10250265 0.005699945 0.12924233 0.08902268
000180 41 1b 83 bd f4 f7 16 be f5 6c d7 3d e8 49 5a bd
       -0.06401683 -0.14743024 0.10518829 -0.05329314
000190 80 b8 41 3c fb 38 b9 bd 94 f1 88 bc 0f 7d 8f 3c
       0.011823773 -0.09044071 -0.016716756 0.017515687
0001a0 2e 5d 8f bd 8a 21 6f bd 1c e5 2e be a2 0a 84 bc
       -0.070001945 -0.058381595 -0.17079586 -0.016118351
0001b0 02 e2 b5 3d 11 67 dd 3d 57 e8 3c bd d5 2a d9 3d
       0.08880998 0.10810674 -0.046120014 0.10603873
0001c0 a7 9a 21 3d a9 d4 d9 3d 73 84 2d 3c f0 2c 07 3e
       0.03945413 0.10636265 0.01059066 0.13200736
0001d0 a7 c1 a3 bd 2f d0 9b bd 74 d5 ea 3d c2 ab 08 3e
       -0.07995921 -0.07608067 0.11466494 0.1334677
0001e0 4e 1f a0 bd 7f ff c3 bd ca 2d a1 bd 16 b9 8d bd
       -0.07818471 -0.095702164 -0.07870062 -0.06920068
0001f0 c4 cf 8e 3b c4 88 ce bd d1 41 96 bd 75 fc f9 bb
       0.0043582637 -0.1008468 -0.07336772 -0.007628972
000200 06 5b 0f be ad 31 23 be e5 95 15 bd a9 b5 76 bd
       -0.13999566 -0.15936919 -0.036519904 -0.06023184
000210 b0 29 0a bc ab d2 33 3d 1d b1 9b 3d 04 c1 0e bd
       -0.008432791 0.04390208 0.07602141 -0.034852043
000220 f1 07 f8 3d 26 54 16 be 02 7c 5f 3d 1e ad f8 bc
       0.1211089 -0.14680538 0.054561622 -0.030355986
000230 b5 52 65 bd 92 6f 8f bd 82 b1 1c be 88 04 2d be
       -0.05598708 -0.07003702 -0.15302089 -0.1689626
000240 8f 0a 25 3e da f4 e7 3d e7 77 31 bd eb b0 16 3d
       0.16117309 0.113259986 -0.04332724 0.036789816
000250 5a 4d 0d 3e fa f7 f5 bc 99 1c 92 bd 7a 72 5c 3c
       0.13799039 -0.030025471 -0.07134361 0.013455028
000260 fc 3d c1 3c 0e ab 2b 3d b0 47 a5 3c 64 b8 dc 3c
       0.023589127 0.041911177 0.020175785 0.026943393
000270 9a c1 d1 bc d5 54 0b 3e 0f 86 f2 bd e6 86 4d bd
       -0.025605012 0.1360658 -0.11841976 -0.050177477
000280 48 a2 10 3e 7d fe c3 3c 9e 5b 47 bd f8 4e 20 be
       0.14124405 0.02392506 -0.048671357 -0.15655124
000290 51 3f c1 bd 83 9b 22 be 49 69 03 3c c1 c1 b9 bd
       -0.09435905 -0.15879636 0.008020707 -0.09070159
0002a0 f4 4a 15 bc f6 bc 68 3d d3 9f b0 3d 18 89 d8 3c
       -0.0091121085 0.056820832 0.08624234 0.026432559
0002b0 a2 64 20 be 54 15 7a bb 46 a4 f7 3d c9 26 cd bd
       -0.15663388 -0.0038159685 0.120918795 -0.10017163
0002c0 b1 e2 2d be 62 67 c3 3c b2 e0 9f bd 5b 34 05 bd
       -0.16981007 0.023853008 -0.07806529 -0.032520633
0002d0 05 fb 87 3d 3f 18 5b bd 76 a2 ee 3d cf 91 16 3e
       0.06639675 -0.05348992 0.11652081 0.14704059
0002e0 ad 86 94 bb c2 aa 2f 3d ef 88 07 3e 94 70 ce bb
       -0.004532656 0.042887457 0.1323583 -0.0063000415
0002f0 8b f4 ed bc 87 44 ef 3b bb f9 25 bd 89 d5 3a 3d
       -0.029047271 0.0073018703 -0.040521365 0.0456138
000300 b5 f3 88 3d 6c 4d e3 bd 74 33 16 be 89 22 80 3c
       0.066871084 -0.110987514 -0.14668065 0.015641468
000310 5f 41 f5 3c 37 c4 06 3e 3e ce 01 be 98 72 1f 3c
       0.029938398 0.13160788 -0.12676331 0.009731911
000320 da ba 18 3e 47 11 f3 bd ae 01 98 3d 9d b2 e1 3d
       0.14915028 -0.1186853 0.074221954 0.11020396
000330 9b 18 1f 3e 99 bf 01 be 1c 34 58 bb c5 17 00 3e
       0.1553673 -0.12670745 -0.0032990044 0.12509067
000340 bd 09 26 3e 26 22 31 3e de 5f e6 bd b4 52 91 bd
       0.16214652 0.17298183 -0.11248754 -0.070958525
000350 af 26 14 3e 7d 0e 00 be c3 05 75 3d e9 db 10 be
       0.14467882 -0.12505527 0.059819948 -0.14146389
000360 aa d6 26 3e 5a d6 ea bc b7 2b 16 3e 14 d2 86 3d
       0.16292825 -0.028666664 0.14665113 0.06583038
000370 bc 72 ba 3c bb 91 17 3e 38 73 c9 bd 5c 3a 03 bd
       0.022759788 0.14801686 -0.09836429 -0.032038078
000380 86 cd 0e be 55 b1 09 be f2 f8 1a be 53 52 93 3b
       -0.13945588 -0.13446553 -0.15134028 0.004495898
000390 d0 68 1d be a1 bf 05 3d 18 99 93 3d 7b 6d ce bd
       -0.15372014 0.032653455 0.07206935 -0.100794755
0003a0 9c 88 90 bd e3 61 c0 bd 41 64 0f bc 07 40 6a bd
       -0.07057306 -0.093936704 -0.00875193 -0.057189967
0003b0 6d 3e 72 3a 90 bd 26 3c 89 d6 12 3d ff 7a e0 3d
       0.00092408695 0.010177031 0.035849128 0.1096096
0003c0 31 f5 92 3d 70 db a2 bd 23 a7 95 bd 63 10 e4 bd
       0.07175673 -0.07952011 -0.073072694 -0.11135938
0003d0 36 f0 22 be 68 7a 37 3e 78 0d 53 bd f6 0f 2f be
       -0.15911946 0.17917788 -0.051526517 -0.17095932
0003e0 07 b9 23 3d 47 a1 cf 3d 1c 37 f7 3d 7f 8d 0f 3e
       0.039971378 0.10138183 0.12071058 0.1401882
0003f0 71 d6 1d be 8d 98 32 3d 20 63 08 be e0 c5 a7 3d
       -0.15413834 0.043602515 -0.13319063 0.081920385

encoder.lstm.weight_hh_l0_reverse f4 [128, 32]
000000 48 2f 3a 3b 88 b9 99 3d ff ff d4 bd fd a7 cb 3d
       0.002840953 0.075060904 -0.1040039 0.099441506
000010 98 36 58 3d 14 f1 02 be 34 17 15 3e c8 28 84 3c
       0.05278644 -0.12787277 0.14559633 0.016132727
000020 d7 6d 0c 3e 80 d8 c7 3d 9e 0c 8a 3d cf 2f 30 3c
       0.13713776 0.09758091 0.06740688 0.010753586
000030 f0 8b b2 39 3e e0 e7 bd 02 22 6c 3d 84 06 d8 3d
       0.00034055067 -0.11322068 0.05764962 0.10548118
000040 67 7c 8e 3d 64 73 12 3e a2 cf 1a be 3d 35 db 3d
       0.069573216 0.1430183 -0.15118268 0.10703514
000050 65 3b 42 bd e3 55 00 be e7 9a d8 3d b9 60 fc bd
       -0.047419924 -0.12532763 0.1057642 -0.12323136
000060 10 48 12 be a1 75 1c be 75 f0 1f 3e 55 55 24 be
       -0.14285302 -0.15279247 0.15619071 -0.16048177
000070 d8 bd 9f 3c 4a b1 87 3b 83 8e 1a 3e a5 ec b5 bd
       0.019499704 0.0041410076 0.15093426 -0.08883027
000080 f0 68 01 be 73 a4 d5 3d dc 9d 9e bd 86 b1 0d be
       -0.12637687 0.10431757 -0.07744953 -0.13837251
000090 f7 2b 1a be 6e fb da 3d e2 9f 14 3e b9 12 1b 3e
       -0.15055834 0.10692488 0.14514115 0.15143861
0000a0 b7 15 49 3d 62 d8 1e 3e 27 67 15 3d fb 22 d7 3d
       0.049092975 0.15512231 0.036475327 0.10504719
0000b0 ce de d2 bd 2c 15 12 be b2 5c d1 bd 38 f0 22 3e
       -0.10296403 -0.14265889 -0.10222758 0.15911949
0000c0 f2 e6 8d bd 8a 62 0a 3e 91 0c 09 be cf 7d 09 be
       -0.06928815 0.13514152 -0.133837 -0.13426898
0000d0 34 5f 3e 3d 26 64 b2 3c cb ce 16 bd c3 49 9a 3c
       0.04647751 0.02177627 -0.036818307 0.018834
0000e0 d2 a9 00 be 3b bf c5 3d 36 d3 24 bc 35 16 89 bc
       -0.12564781 0.09655615 -0.010060122 -0.016734222
0000f0 4a b9 14 bd 23 cb ba bd 9e 2e 86 bc e6 42 5d 3d
       -0.036309518 -0.091207765 -0.01637965 0.054018877
000100 1d 7f 01 be fe 57 bb 3d 87 ad c2 3d 98 50 50 3c
       -0.12646146 0.091476426 0.09505754 0.012714528
000110 54 c6 8a 3d 76 2e c9 bd 5b 1c d1 bb 40 a6 1a 3e
       0.06776109 -0.09823315 -0.006381554 0.15102482
000120 c7 8b 03 be 4e db 05 be c1 de 0e 3e 55 2a ba 3c
       -0.1284629 -0.1307194 0.13952161 0.022725264
000130 d9 57 9d 3d 1a 1a c5 bd 92 b0 11 be 94 0d 28 ba
       0.07682771 -0.09624119 -0.14227512 -0.00064107147
000140 f2 72 37 3d 8e 75 0b be 66 ab 89 3b 28 35 1f 3e
       0.044787355 -0.13619062 0.0042013405 0.15547621
000150 6a 3e 9c bd 6e 10 6f 3d 10 bf 64 3c d6 f2 22 be
       -0.07629092 0.058365278 0.0139615685 -0.15912947
000160 ac c0 99 bd 7c 5a 56 3d fa 50 5b bc 73 13 bb bd
       -0.07507452 0.052332386 -0.013386006 -0.09134569
000170 0e 24 3e bc 9a ac 15 bd d1 7e be 3d 02 a3 80 bb
       -0.011605276 -0.03654156 0.09301532 -0.003925682
000180 e5 4c 62 bd d1 80 f3 3d a1 3e ff 3d 3b b9 09 bd
       -0.055249114 0.11889804 0.124631174 -0.033623915
000190 49 9e af bd 07 2e ad 3d f0 8a 0f 3e 3e 04 ba bd
       -0.085751124 0.08456045 0.14017844 -0.090828404
0001a0 23 08 03 3e 80 32 c1 bd 87 31 d0 bd 42 53 be 3b
       0.12796073 -0.0943346 -0.101656966 0.005808265
0001b0 6d 44 13 be 28 b2 b2 bd 26 57 dd bc 4d f7 54 bd
       -0.14381571 -0.08725387 -0.027019095 -0.051993657
0001c0 07 92 b3 3c 63 6a 8c bd 61 39 08 bd df 91 e0 bc
       0.021920217 -0.06856229 -0.033257846 -0.027413307
0001d0 a2 9d 05 be a2 8e 09 be e0 61 a6 bd d5 c4 1d 3c
       -0.13048413 -0.13433316 -0.08124137 0.009629448
0001e0 12 aa 8f 3c ed a8 03 bd b5 30 2e bd 59 90 b7 bc
       0.01753715 -0.032143522 -0.04252692 -0.022407698
0001f0 5d 54 26 bc cd ee ab bd da e8 fa 3d 99 21 18 be
       -0.01015195 -0.08395157 0.12251444 -0.14856566
000200 53 58 3d b8 36 38 a3 3c 10 37 e0 3d 02 10 c0 bd
       -4.514337e-05 0.019924264 0.10948002 -0.09378053
000210 3e 60 03 bd c5 27 0a 3c cb 8c e2 bd d9 71 06 3b
       -0.032074206 0.008432333 -0.110620104 0.0020514636
000220 29 44 8c bd 3b 01 3b 3d 8e 11 2f 3c b7 c6 f0 3c
       -0.06848938 0.04565547 0.010685338 0.02939163
000230 b3 e3 aa 3d 70 44 98 bb e9 a2 cf 3d 9c 9c 31 3d
       0.083442114 -0.0046468303 0.101384945 0.043362245
000240 5c 02 9b 3d 4e 71 8f bc 2f 8a a2 39 df 0d 7d bd
       0.075688094 -0.017510083 0.00031002003 -0.061780807
000250 6f 2f d2 bd 16 01 07 be ee d2 62 bd 5c 32 d2 bd
       -0.102629535 -0.13184008 -0.05537694 -0.102635115
000260 fa 89 0c be 9b 69 93 3c 12 0d 21 bd 8e 43 ab bd
       -0.13724509 0.017994693 -0.039319105 -0.083624944
000270 e0 5a b2 3d 0a 0e ff 3c 5b 93 28 bc 1e 6d c5 bd
       0.08708739 0.031134624 -0.0102890385 -0.09639953
000280 7f 85 4a bd 50 f8 04 be 13 82 d9 3c 72 68 03 be
       -0.049443718 -0.12985349 0.026551282 -0.12832811
000290 43 e0 14 3d 3e 4a 72 3d 16 2a 1a 3e 5d fb 0e 3e
       0.036346685 0.059152834 0.15055117 0.13963075
0002a0 85 71 11 bd db 7f 13 be fa e4 d0 bd 17 0e d4 3d
       -0.03550865 -0.14404242 -0.10199924 0.1035425
0002b0 ff fc 6f bd 8b 4b 66 bd 28 39 20 be 2f d5 0d 3e
       -0.058590885 -0.056224387 -0.15646803 0.13850854
0002c0 f8 17 07 3d f1 e6 6b 3d 61 28 c4 3c d0 1b 0c 3e
       0.032981843 0.05759329 0.023945035 0.13682485
0002d0 ef ae 17 3e 10 df 27 3d f2 2f 1c be 97 01 5c bd
       0.14812826 0.040984213 -0.15252665 -0.053712454
0002e0 d2 3a d1 bd be 04 06 3e 4b 5d b4 bd fe 74 10 3e
       -0.10216297 0.13087747 -0.08806857 0.14107129
0002f0 3a 8a 6e 3d 8b 21 8f bc aa 35 b1 bd b3 90 96 bc
       0.058237292 -0.01747205 -0.08652814 -0.018379545
000300 06 58 b9 bc fc 41 74 3c cf 44 99 bd fe 35 47 3d
       -0.02262498 0.01490831 -0.07483827 0.048635475
000310 d8 bf 20 be 02 f6 ab bc 92 85 03 39 9a 9d 02 3e
       -0.15698183 -0.02099133 0.00012542892 0.12755433
000320 34 f6 11 be be 6a 06 3d 27 2f 9b bd 86 e7 89 bc
       -0.14254075 0.03281664 -0.07577353 -0.016834032
000330 7e e0 01 bb 37 63 30 3d a8 5f f8 bd e0 fc 4a 3d
       -0.0019817646 0.04306337 -0.1212762 0.049557567
000340 7e 88 c1 3d 13 af ad bd 3b c8 03 be 41 85 95 bd
       0.09449862 -0.084806584 -0.1286935 -0.07300807
000350 3d e6 a5 3d d8 16 16 be 8d 66 84 bd d1 aa 9c bc
       0.08100555 -0.14657152 -0.064648725 -0.01912442
000360 92 61 19 be fb 38 09 be d9 f3 e0 3d 46 38 1b 3e
       -0.14978626 -0.13400643 0.1098401 0.15158185
000370 a2 bb a2 bd b9 e4 8d bc 37 03 84 3d 02 ad 1a 3c
       -0.07945944 -0.017320978 0.06445926 0.009440662
000380 43 69 1b 3e ed 41 52 bd 88 67 03 3e de 67 ab bd
       0.15176873 -0.051332403 0.12832463 -0.083694205
000390 26 4a ec bd ae f0 cb bd 6e 94 5c bc 8c 9f 15 be
       -0.1153758 -0.099580154 -0.013463123 -0.14611644
0003a0 75 85 0c 3e 24 5d 87 bd 23 b6 78 bc 44 f1 91 3c
       0.13722785 -0.06609562 -0.0151801435 0.01781524
0003b0 25 ab 07 be d9 20 b4 3d 4e 1f 58 bb cc 66 14 3d
       -0.1324888 0.08795328 -0.0032977643 0.036230847
0003c0 6a fd 80 3c 26 12 ee 3d 4f b4 00 3e 18 26 75 3d
       0.015745837 0.11624555 0.12568782 0.059850782
0003d0 f0 a1 af 3c 6b f4 a3 3d 33 52 90 3d e1 f7 a9 bd
       0.021439523 0.080056034 0.07046928 -0.08299232
0003e0 f6 4c da bc e1 20 8e 3d 6c 7e e1 bd bb 6c 0e bc
       -0.026648026 0.06939865 -0.11010441 -0.008692916
0003f0 6d 21 b6 bd c6 cb cc bc 68 81 54 bd c3 ee de 3d
       -0.08893094 -0.02499951 -0.051881224 0.10885384
